…
2024-04-03 14:17:33,882 - INFO - Loaded file AISFlow.rel, shape=(164, 164)
2024-04-03 14:17:33,883 - INFO - Loading ./libcity/cache/dataset_cache/point_based_AISFlow_12_12_0.7_0.1_standard_64_True_True_True_True.npz
2024-04-03 14:17:36,467 - INFO - train	x: (6117, 12, 164, 9), y: (6117, 12, 164, 9)
2024-04-03 14:17:36,467 - INFO - eval	x: (873, 12, 164, 9), y: (873, 12, 164, 9)
2024-04-03 14:17:36,467 - INFO - test	x: (1748, 12, 164, 9), y: (1748, 12, 164, 9)
2024-04-03 14:17:36,567 - INFO - StandardScaler mean: 8.553017646409911, std: 8.550803670850566
2024-04-03 14:17:36,567 - INFO - NoneScaler
2024-04-03 14:17:39,034 - INFO - MFSTN(
  (time_day_embedding): Linear(in_features=1, out_features=1, bias=True)
  (day_week_embedding): Linear(in_features=7, out_features=1, bias=True)
  (gcn): GCN(
    (relu): ReLU()
    (fc1): Linear(in_features=64, out_features=64, bias=True)
    (w_z): Linear(in_features=128, out_features=64, bias=True)
    (w_zi): Linear(in_features=128, out_features=64, bias=True)
    (w_zf): Linear(in_features=128, out_features=64, bias=True)
    (w_zo): Linear(in_features=128, out_features=64, bias=True)
    (w_h): Linear(in_features=64, out_features=64, bias=True)
    (gc1): GraphConvolution()
    (gc2): GraphConvolution()
    (gc3): GraphConvolution()
    (dgc1): DynamicGraphConvolution()
    (dgc2): DynamicGraphConvolution()
    (bn): BatchNorm1d(64, eps=1e-05, momentum=0.1, affine=True, track_running_stats=True)
    (ln): LayerNorm((164, 64), eps=1e-05, elementwise_affine=True)
    (dropout): Dropout(p=0.2, inplace=False)
  )
  (fc_ox): Linear(in_features=1, out_features=64, bias=True)
  (fc_ht): Linear(in_features=64, out_features=64, bias=True)
  (fc_ct): Linear(in_features=64, out_features=64, bias=True)
  (fc_out): Linear(in_features=768, out_features=12, bias=True)
)
2024-04-03 14:17:39,035 - INFO - time_day_embedding.weight	torch.Size([1, 1])	cuda:0	True
2024-04-03 14:17:39,035 - INFO - time_day_embedding.bias	torch.Size([1])	cuda:0	True
2024-04-03 14:17:39,035 - INFO - day_week_embedding.weight	torch.Size([1, 7])	cuda:0	True
2024-04-03 14:17:39,036 - INFO - day_week_embedding.bias	torch.Size([1])	cuda:0	True
2024-04-03 14:17:39,036 - INFO - gcn.w_k	torch.Size([64, 64])	cuda:0	True
…
